…
F1-score:  tensor([… )
Type:  micro
Accuracy:  tensor(0.5134)
Precision:  tensor(0.5134)
Recall:  tensor(0.5134)
F1-score:  tensor(0.5134)
Type:  macro
Accuracy:  tensor(0.1928)
Precision:  tensor(0.1989)
Recall:  tensor(0.1928)
F1-score:  tensor(0.1945)
Type:  weighted
Accuracy:  tensor(0.5134)
Precision:  tensor(0.5291)
Recall:  tensor(0.5134)
F1-score:  tensor(0.5175)
Model: "sequential_35"
_________________________________________________________________
 Layer (type)                Output Shape              Param #
=================================================================
 embedding_35 (Embedding)    (None, 30, 64)            640000
 flatten_35 (Flatten)        (None, 1920)              0
 dense_105 (Dense)           (None, 64)                122944
 dropout_21 (Dropout)        (None, 64)                0
 dense_106 (Dense)           (None, 64)                4160
 dense_107 (Dense)           (None, 15)                975
=================================================================
Total params: 768,079
Trainable params: 768,079
Non-trainable params: 0
_________________________________________________________________
Epoch 1/15

198/198 [==============================] - 3s 14ms/step - loss: 93.7128 - categorical_accuracy: 0.2234 - val_loss: 42.3063 - val_categorical_accuracy: 0.2322
Epoch 2/15
198/198 [==============================] - 2s 11ms/step - loss: 22.7107 - categorical_accuracy: 0.3244 - val_loss: 17.1993 - val_categorical_accuracy: 0.3888
…
