…
F1-score:  tensor([… )
Type:  micro
Accuracy:  tensor(0.5270)
Precision:  tensor(0.5270)
Recall:  tensor(0.5270)
F1-score:  tensor(0.5270)
Type:  macro
Accuracy:  tensor(0.1980)
Precision:  tensor(0.2006)
Recall:  tensor(0.1980)
F1-score:  tensor(0.1987)
Type:  weighted
Accuracy:  tensor(0.5270)
Precision:  tensor(0.5334)
Recall:  tensor(0.5270)
F1-score:  tensor(0.5286)
Model: "sequential_36"
_________________________________________________________________
 Layer (type)                Output Shape              Param #
=================================================================
 embedding_36 (Embedding)    (None, 30, 64)            640000
 flatten_36 (Flatten)        (None, 1920)              0
 dense_108 (Dense)           (None, 64)                122944
 dropout_22 (Dropout)        (None, 64)                0
 dense_109 (Dense)           (None, 64)                4160
 dense_110 (Dense)           (None, 15)                975
=================================================================
Total params: 768,079
Trainable params: 768,079
Non-trainable params: 0
_________________________________________________________________
Epoch 1/15

198/198 [==============================] - 3s 12ms/step - loss: 2.9492 - categorical_accuracy: 0.2132 - val_loss: 2.5801 - val_categorical_accuracy: 0.1304
Epoch 2/15
198/198 [==============================] - 2s 12ms/step - loss: 2.4289 - categorical_accuracy: 0.1591 - val_loss: 2.3501 - val_categorical_accuracy: 0.1897
…
