…
F1-score:  tensor([… )
Type:  micro
Accuracy:  tensor(0.3175)
Precision:  tensor(0.3175)
Recall:  tensor(0.3175)
F1-score:  tensor(0.3175)
Type:  macro
Accuracy:  tensor(0.1195)
Precision:  tensor(0.1353)
Recall:  tensor(0.1195)
F1-score:  tensor(0.1239)
Type:  weighted
Accuracy:  tensor(0.3175)
Precision:  tensor(0.3586)
Recall:  tensor(0.3175)
F1-score:  tensor(0.3287)
Model: "sequential_37"
_________________________________________________________________
 Layer (type)                Output Shape              Param #
=================================================================
 embedding_37 (Embedding)    (None, 30, 64)            640000
 flatten_37 (Flatten)        (None, 1920)              0
 dense_111 (Dense)           (None, 64)                122944
 dropout_23 (Dropout)        (None, 64)                0
 dense_112 (Dense)           (None, 64)                4160
 dense_113 (Dense)           (None, 15)                975
=================================================================
Total params: 768,079
Trainable params: 768,079
Non-trainable params: 0
_________________________________________________________________
Epoch 1/15

198/198 [==============================] - 3s 14ms/step - loss: 89.0031 - categorical_accuracy: 0.1891 - val_loss: 34.5334 - val_categorical_accuracy: 0.2626
Epoch 2/15
198/198 [==============================] - 2s 12ms/step - loss: 19.3262 - categorical_accuracy: 0.3390 - val_loss: 17.1810 - val_categorical_accuracy: 0.3840
…
