…
THe length of the datset ----------------------> (156573, 6)
The lenth of the datset--------------------> (45000, 4)
The X_train shape-----> (25312, 30)
The X_text shape------> (11250, 30)
THe y_train shape-----> (25312, 15)
The y_test shape------> (11250, 15)
The X_train shape-----> (25312, 30)
The X_text shape------> (11250, 30)
THe y_train shape-----> (25312, 15)
The y_test shape------> (11250, 15)
Model: "sequential_9"
_________________________________________________________________
 Layer (type)                Output Shape              Param #
=================================================================
 embedding_9 (Embedding)     (None, 30, 64)            640000
 flatten_9 (Flatten)         (None, 1920)              0
 dense_27 (Dense)            (None, 64)                122944
 dropout_9 (Dropout)         (None, 64)                0
 dense_28 (Dense)            (None, 64)                4160
 dense_29 (Dense)            (None, 15)                975
=================================================================
Total params: 768,079
Trainable params: 768,079
Non-trainable params: 0
_________________________________________________________________
Epoch 1/15
Epoch 1/10
198/198 [==============================] - 2s 8ms/step - loss: 2.9262 - categorical_accuracy: 0.3124 - val_loss: 2.5560 - val_categorical_accuracy: 0.1291
Epoch 2/10
198/198 [==============================] - 2s 8ms/step - loss: 2.4185 - categorical_accuracy: 0.1638 - val_loss: 2.3842 - val_categorical_accuracy: 0.1820
…
